…
['anyone', 'are', 'bye', 'chatting', 'day', 'good', 'goodbye', 'hello', 'hey', 'hi', 'hola', 'how', 'is', 'later', 'next', 'nice', 'see', 'there', 'till', 'time', 'to', 'you']
12 documents
2 classes ['goodbye', 'greeting']
22 unique lemmatized words ['anyone', 'are', 'bye', 'chatting', 'day', 'good', 'goodbye', 'hello', 'hey', 'hi', 'hola', 'how', 'is', 'later', 'next', 'nice', 'see', 'there', 'till', 'time', 'to', 'you']
Training data created
_________________________________________________________________
Layer (type)                 Output Shape              Param #   
=================================================================
dense_1 (Dense)              (None, 128)               2944      
_________________________________________________________________
dropout_1 (Dropout)          (None, 128)               0         
_________________________________________________________________
dense_2 (Dense)              (None, 128)               16512     
_________________________________________________________________
dropout_2 (Dropout)          (None, 128)               0         
_________________________________________________________________
dense_3 (Dense)              (None, 64)                8256      
_________________________________________________________________
dropout_3 (Dropout)          (None, 64)                0         
_________________________________________________________________
dense_4 (Dense)              (None, 64)                4160      
_________________________________________________________________
dropout_4 (Dropout)          (None, 64)                0         
_________________________________________________________________
dense_5 (Dense)              (None, 64)                4160      
_________________________________________________________________
dense_6 (Dense)              (None, 2)                 130       
=================================================================
Total params: 36,162
Trainable params: 36,162
Non-trainable params: 0
_________________________________________________________________
None
Epoch 1/200

 5/22 [=====>........................] - ETA: 14s - loss: 0.7615 - acc: 0.2000
22/22 [==============================] - 4s 198ms/step - loss: 0.7283 - acc: 0.4091
Epoch 2/200
…
